chatbot/data.pth (torch, 8170 bytes, 6 tensors)

l1.weight f4 [8, 103]
0	0xbcc2282c	-0.023700796
1	0x3f3e97fe	0.7445067
2	0x3f29f7f6	0.66393983
3	0x3f8723b6	1.0557773
4	0x3e845284	0.25844204
5	0x3f03d5f4	0.5149834
6	0x3ed6ae09	0.41929653
7	0x3e0b5c87	0.13609515
8	0x3e920463	0.28518972
9	0xbdeb5430	-0.11490667
10	0x3eca85e8	0.39555287
11	0x3ec9fa1c	0.3944863
12	0x3e9a1bf6	0.30099458
13	0x3e496eec	0.1967122
14	0xbd41778e	-0.047233157
15	0x3f3468f5	0.7047265
16	0xbed6e6e6	-0.41973037
17	0x3e8d4015	0.27587953
18	0xbed1c45a	-0.40970117
19	0x3e91125b	0.28334317
20	0xbf50923b	-0.8147313
21	0x3e5faecb	0.21844022
22	0x3e36de18	0.1785816
23	0x3e802d30	0.25034475
24	0x3f0bfca1	0.54682356
25	0xbf29515a	-0.6613976
26	0x3eb591bf	0.35462758
27	0x3d7127f5	0.058875997
28	0xbdeba4f3	-0.11506071
29	0x3f036e77	0.5134043
30	0x3eb6e4b4	0.35721362
31	0x3d3b8c16	0.045787893
32	0xbe0ccc07	-0.13749705
33	0x3e095ac6	0.13413534
34	0xbef9e52e	-0.48807663
35	0x3dc1976c	0.094527096
36	0x3f1dc92d	0.61635095
37	0x3dc7a39d	0.09748004
38	0x3f2ef379	0.6834026
39	0x3e39e4ad	0.18153639
40	0x3f2b57cd	0.6693085
41	0xbf163b39	-0.58684117
42	0x3f29d316	0.66337717
43	0x3f4fe83c	0.81213737
44	0x3f616c16	0.8805555
45	0x3e8a8db8	0.27061248
46	0x3cdcb64c	0.026942395
47	0x3da8c9d1	0.082416184
48	0x3e59917c	0.21246904
49	0x3f233942	0.63759243
50	0x3f5b838b	0.85747594
51	0x3f2e4883	0.68079394
52	0x3efc98a9	0.4933522
53	0x3e831a6e	0.25606102
54	0x3f0d68f9	0.552383
55	0xbf45f5b4	-0.7732804
56	0xbe48a3d1	-0.19593741
57	0xbd8bb77f	-0.068221085
58	0x3ceb0b2a	0.028691847
59	0x3f54f7af	0.83190435
60	0xbe4a35ce	-0.19747087
61	0xbf74ce35	-0.95627147
62	0x3e89e384	0.26931393
63	0xbf236839	-0.63830906
64	0x3df5fb7a	0.12010856
65	0x3f871531	1.0553342
66	0x3db4eccc	0.08834228
67	0x3f1cb2d4	0.6121037
68	0x3f00184d	0.5003708
69	0xbd5c8737	-0.05383989
70	0xbebcaa14	-0.3684851
71	0x3d05f280	0.03270197
72	0x3e92edf1	0.2869716
73	0xbe860f35	-0.26183477
74	0xbdf9ba99	-0.12193794
75	0xbf89b3cc	-1.0757995
76	0xbf8f03bf	-1.1173018
77	0xbf27034d	-0.6523941
78	0x3d182104	0.03714086
79	0x3ed24be2	0.4107352
80	0xbf382e74	-0.7194588
81	0x3e22c21b	0.15894358
82	0x3eb7ca3a	0.35896474
83	0x3f0a01ee	0.53909194
84	0xbf232d00	-0.6374054
85	0xbd0b7aab	-0.034052532
86	0x3f60610d	0.8764809
87	0xbf80499f	-1.0022467
88	0xbede365d	-0.4340085
89	0x3d6f6283	0.058443557
90	0x3ef06c95	0.46957842
91	0x3e4c0c62	0.19926599
92	0x3f1f9d9a	0.62349856
93	0x3db93991	0.09044183
94	0xbe59d3e2	-0.21272233
95	0xbe8b1a87	-0.27168676
96	0x3d1a610c	0.037690207
97	0x3dedfa59	0.11620016
98	0x3f36e620	0.7144489
99	0x3f43971e	0.7640246
100	0x3ea13b70	0.3149066
101	0x3e556323	0.20838599
102	0x3e80bf76	0.25146073
103	0x3dbdbfff	0.09265136
104	0x3f119370	0.56865597
105	0x3ec3f07c	0.38269413
106	0x3eaa2841	0.33233836
107	0x3ed2da88	0.4118235
108	0xbf0636e5	-0.5242751
109	0xbed9773b	-0.42473778
110	0x3edcee53	0.43150577
111	0x3eb5b4ec	0.35489595
112	0x3f27078a	0.6524588
113	0x3ea10052	0.31445557
114	0x3ee27cd0	0.4423585
115	0x3eecbdf3	0.4623867
116	0x3ec470f8	0.38367438
117	0xbef83f87	-0.48485968
118	0xbf200e24	-0.62521577
119	0x3e68f610	0.22750115
120	0xbcb318dd	-0.021862442
121	0x3f51b823	0.81921595
122	0x3f09c184	0.53810906
123	0xbe9b9589	-0.30387524
124	0xbe7e1267	-0.24811707
125	0x3f10cd4b	0.5656325
126	0x3f255b88	0.6459279
127	0x3df0c207	0.11755758
128	0xbeb3cb6d	-0.3511614
129	0x3d19494e	0.037423424
130	0x3df97cf8	0.12182039
131	0x3ea2376d	0.31682912
132	0x3d31b3de	0.043384425
133	0x3eef299a	0.46711427
134	0x3e77a05e	0.24182269
135	0x3f64d818	0.8939223
136	0x3f07608b	0.5288169
137	0x3f48b9a7	0.78408283
138	0x3eaf153c	0.34195888
139	0x3e2036c9	0.15645899
140	0x3e76dcd2	0.24107674
141	0xbf2007d5	-0.6251195
142	0x3e8f0d82	0.27939993
143	0xbe526c1d	-0.20549054
144	0x3f155451	0.5833178
145	0xbe5ca6a0	-0.21547937
146	0xbe501fe9	-0.20324673
147	0xbe6a595c	-0.2288565
148	0x3ec5e429	0.38650635
149	0xbc6417f3	-0.013921726
150	0x3ef160ed	0.4714426
151	0x3e0ddeb4	0.13854486
152	0x3e173802	0.14767459
153	0xbe147733	-0.14498596
154	0xbe0978dc	-0.1342501
155	0xbee7561f	-0.45182893
156	0x3e8c173a	0.2736147
157	0x3f45f296	0.7732328
158	0xbede3c72	-0.4340549
159	0x3ed2248c	0.41043508
160	0xbea8a341	-0.32937053
161	0x3f020b25	0.50798255
162	0x3e13717e	0.14398763
163	0x3f17a1cf	0.59231275
164	0x3ddd447c	0.10804078
165	0xbf1a60ae	-0.6030377
166	0xbf4d3bcc	-0.8016937
167	0xbdf2f9af	-0.118640296
168	0xbe8883ae	-0.26662964
169	0x3ee31d3a	0.44358236
170	0x3f2b8f75	0.67015773
171	0x3e859b32	0.26094967
172	0x3fab2273	1.3369888
173	0x3f431661	0.7620602
174	0x3ed5da1c	0.41767967
175	0x3ee9d9d8	0.45674014
176	0x3ee07d0c	0.43845403
177	0x3f2ad6dc	0.667341
178	0xbf378d27	-0.71699756
179	0x3e38085f	0.17971943
180	0xbe824f1e	-0.25450987
181	0xbe346c35	-0.17619403
182	0xbe66f919	-0.2255596
183	0xbefdacd5	-0.49545923
184	0x3ede608b	0.4343303
185	0xbed449a5	-0.41462436
186	0x3e347d66	0.1762596
187	0xbed6bf42	-0.41942793
188	0xbf018409	-0.50592095
189	0x3e405b9c	0.18784946
190	0x3f90444c	1.1270843
191	0x3f367847	0.7127728
192	0x3da86059	0.08221502
193	0x3e8d56c8	0.2760527
194	0x3f152312	0.5825664
195	0xbdc0ee08	-0.09420401
196	0x3e95eb2d	0.29280987
197	0x3f155c45	0.5834392
198	0x3ec65c8f	0.38742492
199	0xbc31fa01	-0.010862828
200	0x3d40737e	0.046985142
201	0x3f487d65	0.78316337
202	0x3ef72200	0.48268127
203	0x3ed45e96	0.41478413
204	0xbe934086	-0.28760165
205	0x3e930b85	0.28719726
206	0x3e955542	0.2916661
207	0x3e84d9ce	0.25947422
208	0x3e5eb38c	0.21748179
209	0xbf4d004f	-0.80078596
210	0x3ec0d453	0.3766199
211	0xbf1357ad	-0.5755566
212	0xbe1df202	-0.1542435
213	0x3f0693c4	0.5256922
214	0x3e868a3b	0.26277336
215	0x3eda0d08	0.42588067
216	0x3ea20b7a	0.3164938
217	0x3e4792f9	0.1948966
218	0x3f0afefa	0.54295313
219	0x3eda8387	0.42678472
220	0xbea29a83	-0.31758508
221	0xbf388cee	-0.7209004
222	0x3e8cbc54	0.27487433
223	0xbeb9e534	-0.3630768
224	0x3eef221a	0.46705705
225	0x3f367777	0.7127604
226	0x3ee8db1a	0.4547966
227	0x3ec7d569	0.39030007
228	0x3f800678	1.0001974
229	0x3f12f395	0.57402927
230	0x3d0bd61d	0.03413974
231	0x3def22c5	0.11676554
232	0x3f22157b	0.63314027
233	0x3eb4f80b	0.35345492
234	0x3e135d4f	0.14391063
235	0x3dad6794	0.084670216
236	0x3e8212be	0.25404924
237	0xbdd12ab0	-0.1021322
238	0x3f986a1e	1.1907384
239	0x3f86536a	1.0494206
240	0x3f8204f2	1.0157759
241	0x3eeb00a7	0.45898935
242	0xbd9a3dd1	-0.07531322
243	0x3d90e2b7	0.070744924
244	0xbf388e99	-0.72092587
245	0x3e07a91e	0.13248107
246	0xbebe3b2f	-0.37154528
247	0x3f10c17b	0.5654523
248	0xbee7391b	-0.45160756
249	0xbe94d1e1	-0.29066375
250	0xbea4c413	-0.32180843
251	0x3e20698c	0.15665263
252	0xbe81f8e8	-0.25385213
253	0x3e4ee091	0.20202853
254	0xbedf53ea	-0.4361871
255	0x3c21097c	0.009828921

l1.bias f4 [8]
0	0x3f8ec176	1.115279
1	0x3f20096b	0.6251437
2	0x3f3885d0	0.7207918
3	0x3f864302	1.0489199
4	0x3f316da1	0.69307905
5	0x3f7d3557	0.98909515
6	0x3fb09dff	1.3798217
7	0x3f22b229	0.635531

l2.weight f4 [8, 8]
0	0x3e01d18b	0.1267759
1	0x3f46d080	0.77661896
2	0x3fa1bf85	1.2636572
3	0x3fd85f00	1.6903992
4	0x3f820d41	1.0160295
5	0xbfe20cd9	-1.7660171
6	0x3f52473e	0.82139957
7	0xbf34e527	-0.7066216
8	0xbf5dca9a	-0.8663727
9	0x3f8a6f97	1.0815305
10	0x3fb16769	1.3859683
11	0x3ef00d77	0.46885273
12	0x3fc99f75	1.5751787
13	0x3ea78378	0.3271749
14	0x3f114e39	0.56759983
15	0xbfbf2f5c	-1.4936328
16	0x3fac2eeb	1.3451818
17	0x3fb879c3	1.4412159
18	0x3f905cdc	1.1278338
19	0xbf7ddbf0	-0.99163723
20	0x3f8facc3	1.1224598
21	0x3df49655	0.11942736
22	0xbf1145eb	-0.5674731
23	0x3f95a0c2	1.1689684
24	0x3e9a6fe7	0.301635
25	0xbd777070	-0.060409963
26	0x3d1f9a90	0.03896576
27	0xbde89eec	-0.11358437
28	0xbe892b66	-0.26790923
29	0xbded0672	-0.11573495
30	0xbdb99648	-0.09061867
31	0xbe3678d2	-0.17819527
32	0x3ff69630	1.9264584
33	0x3f1a3108	0.60231066
34	0xbfb4aaa3	-1.4114574
35	0xbf8b2315	-1.0870081
36	0x3f9399bd	1.1531292
37	0x3fec2a0e	1.8450334
38	0x3fc490e3	1.5356716
39	0xbfb4d4d0	-1.4127445
40	0x3f258845	0.64661056
41	0x3d266c66	0.04063072
42	0x3df0f847	0.11766105
43	0x3fc5a314	1.5440392
44	0xbfc3b389	-1.5289165
45	0x391eddbf	0.00015150661
46	0x3f46812c	0.7754085
47	0x3f8c4800	1.0959473
48	0x3ec96c0f	0.39340255
49	0x3f475aac	0.7787273
50	0x3fd2a88e	1.6457689
51	0xbf43f06b	-0.76538724
52	0x3eb7606d	0.35815755
53	0x3f9c9467	1.2232789
54	0xbf6f0ccd	-0.9337891
55	0x3fea13ea	1.8287327
56	0x3f828e7c	1.0199733
57	0xbfedae97	-1.8568906
58	0xbe800fcc	-0.25012052
59	0x3f779d9e	0.9672488
60	0xbeb4b9e8	-0.35298085
61	0x3f870fbd	1.0551678
62	0x3fb75339	1.4322273
63	0x3f4e68c4	0.8062861

l2.bias f4 [8]
0	0x3eca52e3	0.39516363
1	0x3e341598	0.17586362
2	0xbe38fb5f	-0.1806464
3	0xbe7be9f8	-0.24600971
4	0x3f3ea6df	0.74473375
5	0x3f617c99	0.88080746
6	0x3e5abfe3	0.21362261
7	0x3f659b2c	0.896899

l3.weight f4 [17, 8]
0	0xbd939d6e	-0.07207762
1	0x3db29822	0.08720423
2	0xbee1d446	-0.44107264
3	0x3d9b196c	0.07573208
4	0x3ef5d2d1	0.48012403
5	0xbef6fddf	-0.48240563
6	0xc00d3168	-2.2061405
7	0x3e0a5cd4	0.13511974
8	0xbf23f313	-0.64042777
9	0x3ed46b6f	0.41488215
10	0xc00f887c	-2.2427053
11	0xbe3c946c	-0.18415993
12	0xbddd7999	-0.108142085
13	0x3e3b2111	0.18274333
14	0xbf07f433	-0.53106993
15	0x3e9041e1	0.28175262
16	0xbfa9cc86	-1.3265541
17	0xbee0c9ef	-0.43904063
18	0x3f1e59fb	0.6185605
19	0x3e01639c	0.12635654
20	0xbf97d57b	-1.1862024
21	0xbe6e39ce	-0.23264238
22	0x3f02449d	0.50885946
23	0xbfc54b8a	-1.5413678
24	0x3ec7cc6a	0.39023143
25	0xbde79853	-0.113083504
26	0xbea38652	-0.31938416
27	0x3eb36de5	0.3504478
28	0xbfef9caf	-1.8719691
29	0x3ed2743b	0.41104302
30	0xbf6c822d	-0.9238613
31	0xbe5ab119	-0.2135662
32	0xbe0f2851	-0.13980223
33	0x3eb3a9b0	0.350904
34	0x3f184ce1	0.5949231
35	0xbe8dad0c	-0.27671087
36	0xbf7de07c	-0.9917066
37	0xbfd917db	-1.6960405
38	0x3e49e62c	0.1971671
39	0xbf3b4219	-0.7314773
40	0x3eb8eb80	0.36117172
41	0xbfd48be4	-1.6605191
42	0xbf83e70e	-1.0304887
43	0xbe96c56e	-0.29447502
44	0xbe8b9932	-0.27265316
45	0x3f272d60	0.6530361
46	0xc01f5ce0	-2.4900436
47	0x3e98c868	0.29840398
48	0xbf373a53	-0.7157337
49	0xbf5eed4d	-0.8708084
50	0xc021f808	-2.5307636
51	0x3e8e2a6b	0.27766737
52	0x3f337344	0.70097756
53	0x3ee15fd4	0.44018424
54	0xc03a4090	-2.9101906
55	0x3f04e25c	0.51907897
56	0xbff6df2a	-1.9286854
57	0xbf7268a8	-0.9469094
58	0xbce5a5d3	-0.028033173
59	0x3dd964c0	0.1061492
60	0x3ed1c617	0.40971443
61	0xbe3c37d4	-0.18380672
62	0xbd4e4dfe	-0.050367348
63	0x3ea5284b	0.32257304
64	0xbfcafeaa	-1.5858967
65	0x3ef2635b	0.47341427
66	0xbd63b03a	-0.055587985
67	0xbc60de80	-0.013724923
68	0x3f5a6915	0.8531659
69	0xbfefa1d8	-1.8721266
70	0xbfa5cfb3	-1.295401
71	0x3e9203f4	0.2851864
72	0x3ef8daa8	0.4860432
73	0x3dd6a68a	0.104809836
74	0xc00ac992	-2.1685529
75	0x3e66d9c2	0.22544006
76	0xbfe552bd	-1.7915875
77	0x3f763582	0.96175396
78	0xc02a2c14	-2.6589403
79	0xbb970553	-0.004608789
80	0xbeed56ee	-0.46355385
81	0xbf51e13a	-0.81984293
82	0xbfae859f	-1.3634528
83	0x3e428806	0.18997201
84	0xbfec15a8	-1.8444109
85	0x3f50368e	0.81333244
86	0xbf1e86f7	-0.6192469
87	0x3f4ffe54	0.8124745
88	0xc0067d9d	-2.1014168
89	0x3d6253fb	0.05525587
90	0x3f0f0f7a	0.5588299
91	0x3e465962	0.19370034
92	0x3eac6cf1	0.33676866
93	0xbff1c975	-1.8889605
94	0x3ebc8643	0.36821184
95	0xbf33fb8d	-0.7030571
96	0xbf25bd47	-0.6474194
97	0x3e86a381	0.2629662
98	0x3ec55525	0.38541523
99	0x3ea18efb	0.31554398
100	0x3f07bc62	0.53021824
101	0xc03dd892	-2.9663434
102	0xbe56562b	-0.20931308
103	0xbf5cefe9	-0.86303574
104	0x3f0dd3cd	0.5540131
105	0x3f5c3686	0.86020696
106	0xbfc7fe02	-1.5624392
107	0x3e3a7c02	0.18211368
108	0xbf3b353c	-0.73128104
109	0xbefe546f	-0.49673793
110	0xbfd1aba2	-1.6380503
111	0x3d5cc7cd	0.053901482
112	0xbeb4592a	-0.35224277
113	0xbf80ee32	-1.0072691
114	0x3ec5ebca	0.38656455
115	0xbd537830	-0.05162829
116	0xbf6a258f	-0.9146356
117	0xbda66dc0	-0.08126402
118	0xbddc9637	-0.10770839
119	0x3e5be18e	0.21472761
120	0x3eb65c1a	0.35617143
121	0x3f068d8c	0.52559733
122	0xbdfc3723	-0.12315204
123	0xbdce3e88	-0.10070521
124	0x3e709d3d	0.23497482
125	0xbfd129ab	-1.6340841
126	0xbf9fa418	-1.2471952
127	0xbf5f70fd	-0.8728178
128	0x3f46222e	0.77395904
129	0x3f60805e	0.8769587
130	0xbd989b72	-0.07451524
131	0xbe3a32fc	-0.18183511
132	0xbfdc1c9a	-1.7196229
133	0xbf4009e1	-0.75015074
134	0xbf588965	-0.8458465
135	0xbff53df7	-1.9159535

l3.bias f4 [17]
0	0xbe31e52b	-0.17372577
1	0xbe80f0be	-0.25183672
2	0x3dee6bca	0.11641653
3	0xbdbd8685	-0.09254173
4	0xbd819ec1	-0.06329108
5	0xbe59e244	-0.2127772
6	0x3e6bc01a	0.230225
7	0x3e511002	0.20416263
8	0xbee71863	-0.45135793
9	0x3d1c1f00	0.0381155
10	0x3ddc6009	0.10760505
11	0xbed880be	-0.42285722
12	0xbed10c34	-0.40829623
13	0xbdede481	-0.11615849
14	0xbe8093f8	-0.2511289
15	0x3dfbfa59	0.123036094
16	0x3e36ee14	0.17864257
